data.pth (torch, 5015 bytes, 6 tensors)

l1.weight f4 [8, 54]
0.46381718 0.2266487 0.24458607 -0.17045373 0.027751159 0.4797606 0.46296832 0.41473576
0.36627415 0.2109677 -0.18782833 0.06464533 0.6409671 0.35327065 0.27948996 -0.04596224
-0.2886816 0.44785655 0.58364666 -0.4165909 0.38677952 -0.4432943 -0.33601785 -0.45056754
0.1964532 -0.34439644 0.66037184 0.037124053 0.5511253 -0.12343142 -0.013469796 0.32551357
0.27617306 0.3982458 0.3033614 -0.017917257 0.56166023 0.38387418 0.42282712 0.44854945
0.20417239 0.71452516 0.17144132 0.19856973 0.57675 0.34056237 0.5398386 0.20079212
0.2872099 0.7816891 -0.03899525 0.53113544 0.25559744 0.54053146 -0.14257944 0.31768227
0.33324918 0.42699724 0.37103978 -0.26330972 0.31942773 0.35869148 0.26098448 0.22823068
0.46714544 0.5413849 0.25161362 0.4568253 0.3270003 0.42358512 0.45531774 -0.29694098
-0.18455946 0.49759394 -0.21342593 0.71422803 0.7288549 0.53828955 0.48086217 0.46159697
-0.31523916 0.39983705 -0.14407489 0.34026664 -0.15161234 0.6086873 -0.17434189 0.4022363
0.3746563 0.38572216 -0.26083246 0.24789898 0.26724485 0.25681955 -0.09940716 -0.35582137
0.43676692 0.24837635 0.56801194 0.3389798 -0.6291963 -0.27202025 0.2919465 -0.57215774
0.3940063 -0.2035281 0.1009262 0.04718268 -0.17281605 -0.24135295 -0.12199086 0.3789407
0.1738857 0.64536417 -0.1527262 -0.11986626 -0.31208554 -0.2556584 0.48661947 0.61391836
-0.27250952 0.4511431 -0.1329152 0.7172684 0.44200468 0.5818823 -0.07842525 0.6283933
-0.17030123 0.48640305 0.55647695 0.6119751 -0.02881577 0.42796692 -0.3188765 -0.07334938
-0.23811255 -0.05873874 0.624286 0.41171756 0.047212914 -0.20091742 -0.2709759 0.5015758
-0.2298695 -0.49789807 -0.13856989 -0.25887665 0.47890618 -0.03198857 0.5240217 -0.18187277
0.1919298 -0.12712759 -0.63495785 -0.36949077 0.20422624 -0.3051233 0.6901615 0.04868309
-0.13362533 -0.076509975 0.096643716 0.45470065 -0.26658228 0.31045675 0.25270155 -0.44318444
-0.14286765 -0.22335899 -0.46600878 0.01803613 0.39870724 -0.21927641 -0.02466837 -0.30179957
0.34010825 0.03145663 0.3242464 -0.44044998 -0.17383774 0.4677062 0.25638345 0.4996305
0.5328849 0.5009288 -0.060706627 0.423143 -0.2746773 0.5343823 -0.09784015 0.53651613
-0.34630328 -0.12153298 -0.09956417 -0.29013246 0.4727685 -0.04220425 0.0018646447 -0.42628804
-0.1506124 -0.14042538 -0.26745188 -0.2518886 -0.21930824 0.23486748 -0.3132514 0.41746184
0.2617236 0.23986419 0.05882003 -0.395765 -0.14411113 -0.19915916 0.029107261 0.21739197
0.6628483 0.7135388 -0.30934593 0.21391237 -0.15799873 -0.55241543 -0.04260859 -0.25174502
-0.23830648 -0.054779574 0.13474992 -0.147167 -0.15823774 -0.12998922 0.5623936 0.028857827
-0.046787925 -0.554209 -0.30320135 0.077010185 0.3928474 0.109618984 0.16802506 0.16327152
-0.03248875 0.10038503 -0.19785005 0.4036356 -0.012493025 0.45812175 -0.43368345 -0.27360243
0.3354917 -0.19427693 0.45726755 -0.080341324 -0.095726214 -0.2604628 -0.19751683 -0.1868385
00000000: 7279 ed3e 9916 683e c574 7a3e 6c8b 2ebe
00000010: 6656 e33c 2ea3 f53e 2f0a ed3e 3f58 d43e
00000020: 4988 bb3e eb07 583e 1256 40be c564 843d
00000030: 6b16 243f e4df b43e 4f19 8f3e e742 3cbd
00000040: 13ce 93be 744d e53e de69 153f 674b d5be
00000050: f707 c63e 78f7 e2be 880a acbe cab0 e6be
00000060: 072b 493e bb54 b0be 210e 293f 640f 183d
00000070: 8c16 0d3f 9dc9 fcbd 6bb0 5cbc b7a9 a63e
00000080: 8e66 8d3e e0e6 cb3e 2f52 9b3e 36c7 92bc
00000090: f7c8 0f3f 288b c43e cc7c d83e 46a8 e53e
000000a0: 9112 513e 1feb 363f 508e 2f3e dd55 4b3e
000000b0: e3a5 133f 315e ae3e dd32 0a3f 739c 4d3e
000000c0: 2d0d 933e c71c 483f 7cb9 1fbd 7ef8 073f
000000d0: abdd 823e 4560 0a3f 5800 12be 40a7 a23e
000000e0: a39f aa3e 629f da3e edf8 bd3e 88d0 86be
000000f0: 088c a33e 69a6 b73e c29f 853e 4eb5 693e
00000100: b02d ef3e 3398 0a3f 80d3 803e 01e5 e93e
00000110: 956c a73e 26e0 d83e 681f e93e a608 98be
00000120: 28fd 3cbe a2c4 fe3e 548c 5abe a6d7 363f
00000130: 3c96 3a3f 58cd 093f 9133 f63e 7056 ec3e
00000140: 0767 a1be 71b7 cc3e 5e88 13be 6e37 ae3e
00000150: 4440 1bbe eed2 1b3f ae86 32be ebf1 cd3e
00000160: f3d2 bf3e 607d c53e d58b 85be 3bd9 7d3e
00000170: 51d4 883e da7d 833e fb95 cbbd 382e b6be
00000180: ea9f df3e 5f56 7e3e 3b69 113f c38e ad3e
00000190: 0213 21bf 3d46 8bbe 037a 953e ee78 12bf
000001a0: 32bb c93e ac69 50be 65b2 ce3d a042 413d
000001b0: b1f6 30be 3a25 77be 58d6 f9bd 8404 c23e
000001c0: 180f 323e 9636 253f 4264 1cbe 717c f5bd
000001d0: adc9 9fbe a8e5 82be 3026 f93e c129 1d3f
000001e0: 5e86 8bbe 3afc e63e ec1a 08be e79e 373f
000001f0: 704e e23e 3df6 143f 6b9d a0bd 62de 203f
00000200: 7263 2ebe d209 f93e 4675 0e3f 66aa 1c3f
00000210: 0d0f ecbc 7b1e db3e c843 a3be 3338 96bd
00000220: c7d3 73be 0898 70bd 35d1 1f3f a5cc d23e
00000230: 5462 413d 4cbd 4dbe 5abd 8abe 4667 003f
00000240: e962 6bbe 7fec febe 44e5 0dbe 7b8b 84be
00000250: 3133 f53e 7206 03bd 4926 063f db3c 3abe
00000260: 3f89 443e bc2d 02be 998c 22bf e52d bdbe
00000270: af20 513e 1f39 9cbe 6dae 303f eb67 473d
00000280: 14d5 08be 43b1 9cbd 24ed c53d 86ce e83e
00000290: 797d 88be 30f4 9e3e 1962 813e 12e9 e2be
000002a0: e64b 12be 38b8 64be b498 eebe 82c0 933c
000002b0: 5b23 cc3e ff89 60be 5215 cabc 7985 9abe
000002c0: ab22 ae3e abd8 003d a003 a63e a982 e1be
000002d0: 8502 32be 3077 ef3e b144 833e 92cf ff3e
000002e0: 256b 083f df3c 003f 83a7 78bd 33a6 d83e
000002f0: 81a2 8cbe 47cd 083f 6b60 c8bd 1f59 093f
00000300: aa4e b1be 48e6 f8bd 4de8 cbbd 3e8c 94be
00000310: b60e f23e 5dde 2cbd 1867 f43a 6d42 dabe
00000320: 233a 1abe accb 0fbe 74ef 88be 8bf7 80be
00000330: 5792 60be 1a81 703e 7d62 a0be 8fbd d53e
00000340: a300 863e f59e 753e 46ed 703d b6a1 cabe
00000350: de91 13be 61f0 4bbe 5a72 ee3c 009c 5e3e
00000360: 6db0 293f 7baa 363f 9762 9ebe d80b 5b3e
00000370: 6bca 21be 196b 0dbf 5886 2ebd b9e4 80be
00000380: 9d06 74be 8c60 60bd e2fb 093e f2b2 16be
00000390: 1309 22be e51b 05be 07f9 0f3f 4067 ec3c
000003a0: b2a4 3fbd a4e0 0dbf 353d 9bbe 84b7 9d3d
000003b0: 4b23 c93e eb7f e03d c30e 2c3e a630 273e
000003c0: ec12 05bd ab96 cd3d 3499 4abe 53a9 ce3e
000003d0: 8baf 4cbc ef8e ea3e c20b debe 9e15 8cbe
000003e0: 91c5 ab3e 88f0 46be f91e ea3e fe89 a4bd
000003f0: 1b0c c4bd 615b 85be da41 4abe 9752 3fbe

l1.bias f4 [8]
0.47654814 0.6292086 0.7126905 0.45487532 0.55421513 0.25065327 0.47461617 0.8888122
00000000: 1efe f33e d113 213f e272 363f 6be5 e83e
00000010: 0be1 0d3f a055 803e e400 f33e 3289 633f

l2.weight f4 [8, 8]
1.041559 0.4859413 0.016559213 -0.97035575 -1.2771008 0.38213247 0.40519372 0.3654078
-0.8165451 0.7263903 1.273209 0.27230978 -0.31749395 -0.23639645 0.30239725 0.12677635
-0.5639411 0.55766463 1.3527302 0.23635466 -0.26114103 -0.70225966 -0.06389702 0.75753546
1.0977043 -1.0417999 -0.12093517 -0.09128739 0.5184284 0.47170755 -0.87262666 1.2129424
0.69261587 0.47438812 -1.1416194 0.75061446 1.105115 0.80422235 0.82112265 0.2588279
0.918564 0.8808884 -0.28167453 -0.74424773 -0.6055074 0.77943736 0.8968229 -0.6963948
1.0707847 -0.37682694 0.1693616 -1.0365567 -0.85799617 -0.6454995 0.08710827 0.8026854
-0.5113795 0.7610614 1.0565764 1.2130919 0.4187873 -0.9735108 0.3290889 0.30279523
00000000: ce51 853f 4ccd f83e 30a7 873c 3c69 78bf
00000010: 0a78 a3bf dea6 c33e 8d75 cf3e bb16 bb3e
00000020: 1a09 51bf b7f4 393f 83f8 a23f 306c 8b3e
00000030: 918e a2be e911 72be d0d3 9a3e a9d1 013e
00000040: 725e 10bf 1cc3 0e3f 4326 ad3f f506 723e
00000050: 47b4 85be 4ac7 33bf 71dc 82bd d8ed 413f
00000060: 9381 8c3f b359 85bf dcac f7bd e2f4 babd
00000070: b9b7 043f a783 f13e 7664 5fbf b241 9b3f
00000080: 464f 313f 00e3 f23e 9620 92bf 4528 403f
00000090: 6974 8d3f 84e1 4d3f 1835 523f 1785 843e
000000a0: 0327 6b3f e781 613f a537 90be 0587 3ebf
000000b0: 8802 1bbf 3589 473f 3096 653f ee46 32bf
000000c0: 790f 893f 76ef c0be 216d 2d3e e4ad 84bf
000000d0: a3a5 5bbf 753f 25bf d265 b23d ca7c 4d3f
000000e0: c4e9 02bf ebd4 423f e53d 873f 9846 9b3f
000000f0: 4a6b d63e 0138 79bf 577e a83e fa07 9b3e

l2.bias f4 [8]
0.27944216 -0.03644904 0.5931713 0.50191146 0.25177944 0.33366245 0.6739983 0.43187952
00000000: 0b13 8f3e 974b 15bd 13da 173f 457d 003f
00000010: 3ce9 803e ced5 aa3e 278b 2c3f 501f dd3e

l3.weight f4 [7, 8]
0.50036114 0.37577912 0.0029458078 -0.8703004 -0.7986004 0.580423 -0.75870764 0.082013756
-0.65123063 -0.9893038 -0.65075004 -0.986565 0.64665717 -0.16448225 -0.6446912 0.69580114
0.335543 -0.2980864 0.5966452 0.14302419 -1.3505071 -1.058831 0.6569308 0.25897956
-0.92656183 0.69600505 0.79167527 -1.0184771 -0.48808149 -0.87152743 -0.86063707 0.7933455
0.69696134 -0.874151 -0.84752864 0.29334754 -0.35082954 -0.23088899 0.6927571 -0.7388882
0.6758124 -1.1428373 -0.91706955 -1.0215634 0.1839486 0.70591795 -0.04591989 -0.63686186
-0.96505326 -0.7443561 -0.8963797 0.68688816 0.5883309 -0.9511364 -0.18287987 -0.55092967
00000000: ab17 003f 1f66 c03e 740e 413b 02cc 5ebf
00000010: 1371 4cbf 9a96 143f aa3a 42bf d4f6 a73d
00000020: 0db7 26bf 0443 7dbf 8e97 26bf 868f 7cbf
00000030: 538b 253f 096e 28be 7c0a 25bf 0620 323f
00000040: 4bcc ab3e c89e 98be bdbd 183f ef74 123e
00000050: 6bdd acbf c687 87bf 9e2c 283f f898 843e
00000060: 2833 6dbf 632d 323f 3bab 4a3f 755d 82bf
00000070: d1e5 f9be 6c1c 5fbf b652 5cbf b118 4b3f
00000080: 0f6c 323f 5cc8 5fbf a3f7 58bf a631 963e
00000090: ee9f b3be 2a6e 6cbe 8858 313f c727 3dbf
000000a0: 0b02 2d3f 7e48 92bf 12c5 6abf 97c2 82bf
000000b0: 065d 3c3e 0ab7 343f 7f16 3cbd 6109 23bf
000000c0: bb0d 77bf 1f8e 3ebf 2479 65bf e7d7 2f3f
000000d0: db9c 163f ad7d 73bf dc44 3bbe ba09 0dbf

l3.bias f4 [7]
-0.34292784 -0.25109178 0.15403163 0.2299824 -0.46821097 -0.08850278 0.22019617
00000000: 3d94 afbe 1a8f 80be 78ba 1d3e 8280 6b3e
00000010: 59b9 efbe f240 b5bd 1b7b 613e
